Some weights of DebertaForSequenceClassification were not initialized from the model checkpoint at microsoft/deberta-base and are newly initialized: ['classifier.bias', 'classifier.weight', 'pooler.dense.bias', 'pooler.dense.weight']
You should probably TRAIN this model on a down-stream task to be able to use it for predictions and inference.
DebertaForSequenceClassification(
  (deberta): DebertaModel(
    (embeddings): DebertaEmbeddings(
      (word_embeddings): Embedding(50265, 768, padding_idx=0)
      (LayerNorm): DebertaLayerNorm()
      (dropout): Dropout(p=0.1, inplace=False)
    )
    (encoder): DebertaEncoder(
      (layer): ModuleList(
        (0-11): 12 x DebertaLayer(
          (attention): DebertaAttention(
            (self): DisentangledSelfAttention(
              (in_proj): Linear(in_features=768, out_features=2304, bias=False)
              (pos_dropout): Dropout(p=0.1, inplace=False)
              (pos_proj): Linear(in_features=768, out_features=768, bias=False)
              (pos_q_proj): Linear(in_features=768, out_features=768, bias=True)
              (dropout): Dropout(p=0.1, inplace=False)
            )
            (output): DebertaSelfOutput(
              (dense): Linear(in_features=768, out_features=768, bias=True)
              (LayerNorm): DebertaLayerNorm()
              (dropout): Dropout(p=0.1, inplace=False)
            )
          )
          (intermediate): DebertaIntermediate(
            (dense): Linear(in_features=768, out_features=3072, bias=True)
            (intermediate_act_fn): GELUActivation()
          )
          (output): DebertaOutput(
            (dense): Linear(in_features=3072, out_features=768, bias=True)
            (LayerNorm): DebertaLayerNorm()
            (dropout): Dropout(p=0.1, inplace=False)
          )
        )
      )
      (rel_embeddings): Embedding(1024, 768)
    )
  )
  (pooler): ContextPooler(
    (dense): Linear(in_features=768, out_features=768, bias=True)
    (dropout): Dropout(p=0, inplace=False)
  )
  (classifier): Linear(in_features=768, out_features=2, bias=True)
  (dropout): Dropout(p=0.1, inplace=False)
)
PeftModelForSequenceClassification(
  (base_model): LoraModel(
    (model): DebertaForSequenceClassification(
      (deberta): DebertaModel(
        (embeddings): DebertaEmbeddings(
          (word_embeddings): Embedding(50265, 768, padding_idx=0)
          (LayerNorm): DebertaLayerNorm()
          (dropout): Dropout(p=0.1, inplace=False)
        )
        (encoder): DebertaEncoder(
          (layer): ModuleList(
            (0-11): 12 x DebertaLayer(
              (attention): DebertaAttention(
                (self): DisentangledSelfAttention(
                  (in_proj): lora.Linear(
                    (base_layer): Linear(in_features=768, out_features=2304, bias=False)
                    (lora_dropout): ModuleDict(
                      (default): Identity()
                    )
                    (lora_A): ModuleDict(
                      (default): Linear(in_features=768, out_features=8, bias=False)
                    )
                    (lora_B): ModuleDict(
                      (default): Linear(in_features=8, out_features=2304, bias=False)
                    )
                    (lora_E): ModuleDict(
                      (default): Linear(in_features=8, out_features=1, bias=False)
                    )
                    (lora_embedding_A): ParameterDict()
                    (lora_embedding_B): ParameterDict()
                    (lora_magnitude_vector): ModuleDict()
                  )
                  (pos_dropout): Dropout(p=0.1, inplace=False)
                  (pos_proj): Linear(in_features=768, out_features=768, bias=False)
                  (pos_q_proj): Linear(in_features=768, out_features=768, bias=True)
                  (dropout): Dropout(p=0.1, inplace=False)
                )
                (output): DebertaSelfOutput(
                  (dense): Linear(in_features=768, out_features=768, bias=True)
                  (LayerNorm): DebertaLayerNorm()
                  (dropout): Dropout(p=0.1, inplace=False)
                )
              )
              (intermediate): DebertaIntermediate(
                (dense): Linear(in_features=768, out_features=3072, bias=True)
                (intermediate_act_fn): GELUActivation()
              )
              (output): DebertaOutput(
                (dense): Linear(in_features=3072, out_features=768, bias=True)
                (LayerNorm): DebertaLayerNorm()
                (dropout): Dropout(p=0.1, inplace=False)
              )
            )
          )
          (rel_embeddings): Embedding(1024, 768)
        )
      )
      (pooler): ContextPooler(
        (dense): Linear(in_features=768, out_features=768, bias=True)
        (dropout): Dropout(p=0, inplace=False)
      )
      (classifier): ModulesToSaveWrapper(
        (original_module): Linear(in_features=768, out_features=2, bias=True)
        (modules_to_save): ModuleDict(
          (default): Linear(in_features=768, out_features=2, bias=True)
        )
      )
      (dropout): Dropout(p=0.1, inplace=False)
    )
  )
)
name base_model.model.deberta.encoder.layer.0.attention.self.in_proj.lora_A.default.weight shape torch.Size([2304, 8]) dtype torch.float32
name base_model.model.deberta.encoder.layer.0.attention.self.in_proj.lora_B.default.weight shape torch.Size([8, 768]) dtype torch.float32
name base_model.model.deberta.encoder.layer.0.attention.self.in_proj.lora_E.default.weight shape torch.Size([8]) dtype torch.float32
…
