Some weights of DebertaV2ForSequenceClassification were not initialized from the model checkpoint at microsoft/deberta-v3-small and are newly initialized: ['classifier.bias', 'classifier.weight', 'pooler.dense.bias', 'pooler.dense.weight']
You should probably TRAIN this model on a down-stream task to be able to use it for predictions and inference.
DebertaV2ForSequenceClassification(
  (deberta): DebertaV2Model(
    (embeddings): DebertaV2Embeddings(
      (word_embeddings): Embedding(128100, 768, padding_idx=0)
      (LayerNorm): LayerNorm((768,), eps=1e-07, elementwise_affine=True)
      (dropout): Dropout(p=0.1, inplace=False)
    )
    (encoder): DebertaV2Encoder(
      (layer): ModuleList(
        (0-5): 6 x DebertaV2Layer(
          (attention): DebertaV2Attention(
            (self): DisentangledSelfAttention(
              (query_proj): Linear(in_features=768, out_features=768, bias=True)
              (key_proj): Linear(in_features=768, out_features=768, bias=True)
              (value_proj): Linear(in_features=768, out_features=768, bias=True)
              (pos_dropout): Dropout(p=0.1, inplace=False)
              (dropout): Dropout(p=0.1, inplace=False)
            )
            (output): DebertaV2SelfOutput(
              (dense): Linear(in_features=768, out_features=768, bias=True)
              (LayerNorm): LayerNorm((768,), eps=1e-07, elementwise_affine=True)
              (dropout): Dropout(p=0.1, inplace=False)
            )
          )
          (intermediate): DebertaV2Intermediate(
            (dense): Linear(in_features=768, out_features=3072, bias=True)
            (intermediate_act_fn): GELUActivation()
          )
          (output): DebertaV2Output(
            (dense): Linear(in_features=3072, out_features=768, bias=True)
            (LayerNorm): LayerNorm((768,), eps=1e-07, elementwise_affine=True)
            (dropout): Dropout(p=0.1, inplace=False)
          )
        )
      )
      (rel_embeddings): Embedding(512, 768)
      (LayerNorm): LayerNorm((768,), eps=1e-07, elementwise_affine=True)
    )
  )
  (pooler): ContextPooler(
    (dense): Linear(in_features=768, out_features=768, bias=True)
    (dropout): Dropout(p=0, inplace=False)
  )
  (classifier): Linear(in_features=768, out_features=2, bias=True)
  (dropout): Dropout(p=0.1, inplace=False)
)
PeftModelForSequenceClassification(
  (base_model): LoraModel(
    (model): DebertaV2ForSequenceClassification(
      (deberta): DebertaV2Model(
        (embeddings): DebertaV2Embeddings(
          (word_embeddings): Embedding(128100, 768, padding_idx=0)
          (LayerNorm): LayerNorm((768,), eps=1e-07, elementwise_affine=True)
          (dropout): Dropout(p=0.1, inplace=False)
        )
        (encoder): DebertaV2Encoder(
          (layer): ModuleList(
            (0-5): 6 x DebertaV2Layer(
              (attention): DebertaV2Attention(
                (self): DisentangledSelfAttention(
                  (query_proj): lora.Linear(
                    (base_layer): Linear(in_features=768, out_features=768, bias=True)
                    (lora_dropout): ModuleDict(
                      (default): Identity()
                    )
                    (lora_A): ModuleDict(
                      (default): Linear(in_features=768, out_features=8, bias=False)
                    )
                    (lora_B): ModuleDict(
                      (default): Linear(in_features=8, out_features=768, bias=False)
                    )
                    (lora_E): ModuleDict(
                      (default): Linear(in_features=8, out_features=1, bias=False)
                    )
                    (lora_embedding_A): ParameterDict()
                    (lora_embedding_B): ParameterDict()
                    (lora_magnitude_vector): ModuleDict()
                  )
                  (key_proj): Linear(in_features=768, out_features=768, bias=True)
                  (value_proj): lora.Linear(
                    (base_layer): Linear(in_features=768, out_features=768, bias=True)
                    (lora_dropout): ModuleDict(
                      (default): Identity()
                    )
                    (lora_A): ModuleDict(
                      (default): Linear(in_features=768, out_features=8, bias=False)
                    )
                    (lora_B): ModuleDict(
                      (default): Linear(in_features=8, out_features=768, bias=False)
                    )
                    (lora_E): ModuleDict(
                      (default): Linear(in_features=8, out_features=1, bias=False)
                    )
                    (lora_embedding_A): ParameterDict()
                    (lora_embedding_B): ParameterDict()
                    (lora_magnitude_vector): ModuleDict()
                  )
                  (pos_dropout): Dropout(p=0.1, inplace=False)
                  (dropout): Dropout(p=0.1, inplace=False)
                )
                (output): DebertaV2SelfOutput(
                  (dense): Linear(in_features=768, out_features=768, bias=True)
                  (LayerNorm): LayerNorm((768,), eps=1e-07, elementwise_affine=True)
                  (dropout): Dropout(p=0.1, inplace=False)
                )
              )
              (intermediate): DebertaV2Intermediate(
                (dense): Linear(in_features=768, out_features=3072, bias=True)
                (intermediate_act_fn): GELUActivation()
              )
              (output): DebertaV2Output(
                (dense): Linear(in_features=3072, out_features=768, bias=True)
                (LayerNorm): LayerNorm((768,), eps=1e-07, elementwise_affine=True)
                (dropout): Dropout(p=0.1, inplace=False)
              )
            )
          )
          (rel_embeddings): Embedding(512, 768)
          (LayerNorm): LayerNorm((768,), eps=1e-07, elementwise_affine=True)
        )
      )
      (pooler): ContextPooler(
        (dense): Linear(in_features=768, out_features=768, bias=True)
        (dropout): Dropout(p=0, inplace=False)
      )
      (classifier): ModulesToSaveWrapper(
        (original_module): Linear(in_features=768, out_features=2, bias=True)
        (modules_to_save): ModuleDict(
          (default): Linear(in_features=768, out_features=2, bias=True)
        )
      )
      (dropout): Dropout(p=0.1, inplace=False)
    )
  )
)
name base_model.model.deberta.encoder.layer.0.attention.self.query_proj.lora_A.default.weight shape torch.Size([768, 8]) dtype torch.float32
name base_model.model.deberta.encoder.layer.0.attention.self.query_proj.lora_B.default.weight shape torch.Size([8, 768]) dtype torch.float32
…
